src/example/q.pt (torch, 279063 bytes, 6 tensors)

weight f4 [256, 9]
0	0x3e7b702e	0.24554512
1	0xbe330333	-0.17481689
2	0x3e014500	0.12623978
3	0xbe8a7a7b	-0.2704657
4	0xbdf48eac	-0.11941275
5	0xbe0c3913	-0.13693647
6	0x3d921340	0.07132578
7	0xbd38c8a0	-0.045113206
8	0xbd44fd88	-0.04809335
9	0xbb8bb900	-0.004263997
10	0xbe8bcf18	-0.27306437
11	0xbe28a73e	-0.16470048
12	0xbdc0cd10	-0.094141126
13	0xbbfe50c0	-0.007761091
14	0x3ea6b6ab	0.3256124
15	0x3df2f83c	0.11863753
16	0x3e110d66	0.14165267
17	0xbe9f6238	-0.31129622
18	0x3e18fb01	0.149395
19	0xbe649a2f	-0.22324441
20	0x3e7f8f11	0.24956919
21	0x3e830587	0.25590155
22	0xbec28e5d	-0.3799924
23	0xbe31baa2	-0.17356351
24	0xbe5edffb	-0.2176513
25	0xbe5a0835	-0.21292193
26	0x3e5d37fc	0.21603388
27	0xbe348215	-0.17627747
28	0x3d46bbdb	0.048518997
29	0xbea64a22	-0.32478434
30	0x3e40be90	0.18822694
31	0x3eb131fb	0.34608445
32	0x3df670bf	0.12033223
33	0xbe45ea70	-0.19327712
34	0x3dc83d65	0.09777335
35	0x3cc17267	0.023614122
36	0x3e74dfa5	0.23913439
37	0xbeb0754a	-0.34464484
38	0x3db1d43e	0.0868306
39	0xbe63b79e	-0.22238013
40	0x3e14d1e1	0.14533187
41	0x3e8b1fb6	0.2717263
42	0x3e8c93d6	0.2745654
43	0x3e963bc7	0.29342481
44	0xbe1e7390	-0.15473771
45	0xbb6795e9	-0.0035337156
46	0x3e43ba84	0.19114119
47	0xbeb3fc61	-0.35153487
48	0xbb00d2ee	-0.0019656974
49	0x3cf46ed0	0.029837996
50	0x3e4bae10	0.19890618
51	0x3e3c5334	0.18391114
52	0x3d9d2d5d	0.07674668
53	0x38c2baaa	9.28541e-05
54	0x3d1526d6	0.03641399
55	0x3e53001e	0.20605513
56	0x3dd076fd	0.10178945
57	0xbdc56083	-0.09637549
58	0xbe03d784	-0.12875181
59	0xbca1c461	-0.019746961
60	0x3d586cd7	0.052838173
61	0xbe832ddd	-0.25620928
62	0xbd5d9010	-0.054092467
63	0xbd94f5a5	-0.072734155
64	0x3d540b7c	0.051768765
65	0x3d042a26	0.03226676
66	0xbe8c42ef	-0.27394816
67	0xbc9fd06a	-0.01950856
68	0x3e8bbc2a	0.27291995
69	0x3e1a7953	0.15085344
70	0x3dbfaf92	0.09359659
71	0xbdaf2822	-0.085525766
72	0x3e2d7c72	0.16942003
73	0x3c2e479d	0.010637191
74	0xbe8366c4	-0.2566434
75	0xbd47d5d6	-0.048787914
76	0xbe48811d	-0.19580503
77	0xbe98828d	-0.29787102
78	0xbea94e5a	-0.3306759
79	0x3e2125c9	0.1573707
80	0x3e9dc817	0.3081672
81	0xbd87c6b4	-0.066296965
82	0xbe73ed03	-0.23820882
83	0xbe72161b	-0.23641245
84	0x3dcca744	0.09992841
85	0xbe5a0538	-0.21291053
86	0xbd84d420	-0.06485772
87	0x3e9b683f	0.3035297
88	0x3e1174ce	0.14204714
89	0x3dba0a6c	0.09084019
90	0x3e4f454a	0.20241275
91	0x3d18cb78	0.037303418
92	0xbe9ad274	-0.30238688
93	0xbe700c18	-0.23442113
94	0xbddf87dc	-0.10914585
95	0x3bef84c0	0.007309526
96	0xbe3b82a6	-0.18311557
97	0xbd5ba4e8	-0.053624064
98	0xbe56af1e	-0.2096524
99	0xbe8c9018	-0.27453685
100	0xbb1db580	-0.0024064481
101	0xbddb5c76	-0.10710995
102	0xbdec37dc	-0.11534092
103	0x3e2bf39a	0.16792145
104	0xbe3d2533	-0.18471222
105	0xbeaa4977	-0.33259174
106	0xbd889df0	-0.06670749
107	0x3e8fbc3b	0.28073296
108	0xbe55cdf7	-0.2087935
109	0xbe313e08	-0.1730882
110	0x3da5298b	0.08064564
111	0xbeaa284b	-0.33233866
112	0x3e8f239d	0.27956858
113	0x3e1637da	0.14669743
114	0xbdb17a3f	-0.08665895
115	0xbea6b6e1	-0.325614
116	0xbd660b23	-0.056162965
117	0xbc724fbf	-0.014789521
118	0xbe85bc99	-0.2612045
119	0xbe956576	-0.2917897
120	0x3e91dc70	0.28488493
121	0xbe328997	-0.17435299
122	0xbe1694e7	-0.14705239
123	0x3e3546bf	0.17702769
124	0xbe588c82	-0.2114735
125	0x3e77af5d	0.2418799
126	0xbeb243cf	-0.3481736
127	0x3e49197c	0.19638628
128	0xbdd2f899	-0.103013225
129	0xbcaea06b	-0.021316728
130	0x3e4b0f32	0.19830015
131	0x3e8881ac	0.26661432
132	0xbe8522d6	-0.2600314
133	0x3dc5721e	0.09640907
134	0xbe0d92c7	-0.13825522
135	0xbe448eab	-0.19195049
136	0x3e2f4876	0.17117485
137	0x3e60291a	0.21890679
138	0xbe09689b	-0.1341881
139	0xbe848b08	-0.25887322
140	0xbe1eedf0	-0.15520453
141	0x3e53cae2	0.20682862
142	0x3dd2d894	0.10295215
143	0x3df02ce0	0.11727309
144	0xbb50c241	-0.0031854066
145	0xbec915b2	-0.39274365
146	0x3e3cf630	0.18453288
147	0xba2509c1	-0.0006295704
148	0x3db24e45	0.08706335
149	0x3e7710af	0.24127458
150	0xbe373419	-0.17890967
151	0xbbf72ed2	-0.007543423
152	0xbea3129e	-0.3185014
153	0xbea9a1b3	-0.3313118
154	0x3e7ece9b	0.24883501
155	0xbe993501	-0.2992325
156	0x3ea152c5	0.3150846
157	0xbe733e49	-0.23754229
158	0x3e199d40	0.15001392
159	0xbe81e28a	-0.25368148
160	0xbe106a34	-0.14103013
161	0xbe10aab7	-0.14127623
162	0xbe7f6636	-0.24941334
163	0x3e6f687b	0.233797
164	0x3ea8d7f2	0.32977253
165	0x3e98b23d	0.29823485
166	0x3d9e7981	0.07738019
167	0xbe80b885	-0.25140777
168	0xbe32e0d4	-0.17468578
169	0xbd4ffbdf	-0.050777312
170	0xbe773572	-0.24141482
171	0x3e8292d7	0.25502655
172	0xbd852f1d	-0.06503127
173	0x3e758f97	0.23980556
174	0x3e082878	0.13296688
175	0xbe82e512	-0.25565392
176	0x3ca4f478	0.020136103
177	0xbe90c30e	-0.28273815
178	0xbe4a5aea	-0.19761243
179	0x3df4c64d	0.11951885
180	0xbe4acaa6	-0.19803867
181	0xbe7ea480	-0.2486744
182	0xbd9395fc	-0.072063416
183	0xbe1100c6	-0.14160451
184	0x3e03a596	0.12856135
185	0xbea1bea6	-0.31590766
186	0x3e37c2ca	0.179454
187	0xbe2a9638	-0.16658866
188	0x3df925cc	0.12165412
189	0x3d95f972	0.073229685
190	0x3d0905ee	0.03345292
191	0x3dd02e8b	0.10165127
192	0x3d343f40	0.044005632
193	0xbedb0e84	-0.42784512
194	0x3d557c43	0.05212046
195	0xbe967898	-0.2938888
196	0x3e493d90	0.1965239
197	0x3dddb20a	0.10824974
198	0x3db81c37	0.089897566
199	0xbe515d27	-0.20445691
200	0x3a0f8d15	0.000547604
201	0x3dae2020	0.08502221
202	0xbebe5a77	-0.37178394
203	0xbe811553	-0.25211582
204	0xbddcccd1	-0.10781253
205	0x3e4afab9	0.19822206
206	0x3e0ce94e	0.13760874
207	0x3e69dbd2	0.22837761
208	0xbe9262eb	-0.28591093
209	0xbdabdfe6	-0.083923146
210	0x3bbe3900	0.005805135
211	0xbe6af300	-0.2294426
212	0xbeaa65b4	-0.33280718
213	0x3bf853c0	0.007578343
214	0xbdca3d2c	-0.09874949
215	0xbe554068	-0.2082535
216	0x3c0a4438	0.008439116
217	0x3e19d5bb	0.15022938
218	0x3da01393	0.078162335
219	0x3e18215a	0.14856473
220	0x3dd06581	0.1017561
221	0xbecc5639	-0.39909533
222	0xbe8799c8	-0.26484513
223	0xbe310d52	-0.17290238
224	0x3e4f2f7f	0.20232962
225	0xbe7ceb5c	-0.24699157
226	0x3dde854c	0.10865268
227	0xbdee5a2f	-0.11638295
228	0xbe78e4d9	-0.24306048
229	0x3eb33669	0.3500245
230	0x3bdce0a0	0.0067406446
231	0x3e7e9536	0.24861607
232	0xbe3b5100	-0.18292618
233	0xbe37aaa4	-0.17936188
234	0x3d3ef6e0	0.046622157
235	0x3d4c8358	0.049929947
236	0x3de1d8d4	0.11027685
237	0xbe77c2b6	-0.2419537
238	0x3d1b6c80	0.03794527
239	0xbe22b3b0	-0.15888858
240	0xbe33c4c3	-0.17555527
241	0xbdf4e670	-0.11958015
242	0xbd800a20	-0.06251931
243	0xbe3e2f63	-0.18572764
244	0xbe41287e	-0.18863103
245	0x3d131b88	0.035914928
246	0x3cc239c0	0.023709178
247	0xbe8a2020	-0.26977634
248	0xbe1f1033	-0.15533523
249	0x3e843ecf	0.2582917
250	0x3c5f8e20	0.013644725
251	0xbd0bfc20	-0.034175992
252	0xbe645396	-0.2229751
253	0xbe98f5f2	-0.2987514
254	0xbd4c14a4	-0.049824372
255	0x3e7bddd0	0.24596334

bias f4 [256]
0	0xbe1cb4a0	-0.15303278
1	0xbe565c4b	-0.20933644
2	0x3df43fc2	0.11926223
3	0xbe76892d	-0.24075766
4	0xbd907d30	-0.070551276
5	0xbe22551d	-0.1585278
6	0x3e1392c9	0.14411463
7	0xbe2468d2	-0.16055611
8	0x3df4ef45	0.119596995
9	0xbe758793	-0.23977499
10	0x3daaf96c	0.08348355
11	0xbda4980c	-0.08036813
12	0x3e827eb4	0.25487292
13	0x3de91b56	0.11382167
14	0x3d93bc91	0.072137006
15	0xbe42b0a8	-0.19012702
16	0xbdb56a3b	-0.088581525
17	0x3e9c7af5	0.3056256
18	0xbe083d7a	-0.13304701
19	0xbe7d5c47	-0.24742232
20	0xbe8b9983	-0.27265558
21	0x3e21bd03	0.15794758
22	0x3d2c6b91	0.04209477
23	0xbdf10c66	-0.11769943
24	0xbce03cbf	-0.027372716
25	0x3dfe16cd	0.12406693
26	0xbe9d238f	-0.30691192
27	0xbe9761b4	-0.2956673
28	0x3e643aa3	0.22287993
29	0xbdd8cc71	-0.10585869
30	0x3e3f47bc	0.18679708
31	0xbe59a09b	-0.21252672
32	0x3d641f93	0.055694174
33	0xbdabce61	-0.08388973
34	0x3e2961d8	0.1654123
35	0xbe71dde0	-0.23619795
36	0x3d835d10	0.06414235
37	0xbda64e69	-0.08120424
38	0xbe7b5390	-0.24543595
39	0xbda9b413	-0.082862996
40	0x3dfd2574	0.12360659
41	0x3da53893	0.08067431
42	0x3e3db623	0.18526511
43	0xbdb6eb81	-0.089316376
44	0xbe46a19c	-0.19397587
45	0xbd8840b0	-0.06652963
46	0xbe59800a	-0.2124025
47	0x3e6ed8c0	0.23324871
48	0xbea15861	-0.3151274
49	0x3dfd27ab	0.12361082
50	0xbe8ad0ee	-0.27112526
51	0x3ea90881	0.330143
52	0x3d7d2793	0.06180532
53	0xbe3c883e	-0.18411347
54	0x3e379569	0.17928089
55	0x3dd51f63	0.10406377
56	0xbd1db18f	-0.03849941
57	0x3c16bfb2	0.009200977
58	0x3d5461d8	0.051851124
59	0x3dd8baa1	0.10582472
60	0x3d0cb768	0.034354597
61	0xbe28b886	-0.1647664
62	0xbdc50f3d	-0.09622047
63	0xbea8634f	-0.32888266
64	0x3e419291	0.18903567
65	0x3e4c6c98	0.199633
66	0x3e6fe090	0.23425508
67	0x3e2398f4	0.15976316
68	0x3cd89591	0.026438506
69	0xbd4b112c	-0.049576923
70	0x3dd1caaf	0.10243737
71	0x3d951aec	0.072805256
72	0xbea09b2c	-0.31368387
73	0xbc84b916	-0.016201537
74	0x3e4d065a	0.20021954
75	0xbd947f7e	-0.0725088
76	0x3e079618	0.1324085
77	0x3e9ffe0f	0.3124852
78	0xbdf42f37	-0.11923068
79	0x3e3217ac	0.17391843
80	0x3e03e120	0.12878847
81	0x3be6525a	0.00702886
82	0x3d2d87f2	0.042365976
83	0x3d47ae37	0.04875013
84	0xbbbbf284	-0.005735697
85	0xbe8f42c9	-0.2798064
86	0xbe4bfc40	-0.19920444
87	0x3d4902ca	0.049074925
88	0xbe08d4e6	-0.13362464
89	0xbe9741fe	-0.29542536
90	0x3e879e6e	0.2648806
91	0x3d38944b	0.0450633
92	0x3e174d53	0.1477559
93	0x3d47b8a0	0.048760056
94	0x3e8f0319	0.2793205
95	0x3e06e204	0.13172156
96	0xbea449eb	-0.32087645
97	0x3ba7d81f	0.005122199
98	0xbe78d23f	-0.24298953
99	0xbe3896c0	-0.18026257
100	0xbe796fd6	-0.24359068
101	0xbeb6e138	-0.35718703
102	0x3d21d6a0	0.039511323
103	0x3cd7e5a1	0.026354613
104	0xbea9515c	-0.33069885
105	0x3ddfb986	0.10924058
106	0xbde6578c	-0.11247167
107	0xbe25c23d	-0.16187377
108	0xbdd6cb26	-0.10487966
109	0x3e14d34d	0.1453373
110	0x3d900ec3	0.070340656
111	0x3d125a20	0.03573048
112	0xbdf7004c	-0.120606035
113	0x3ea2f61f	0.318284
114	0x3e877d65	0.26462856
115	0x3dd9e02a	0.10638459
116	0xbcb375f0	-0.021906823
117	0xbc1691d3	-0.009190041
118	0x3e5788cd	0.21048279
119	0xbde66886	-0.11250405
120	0x3d97914b	0.07400759
121	0xbcdd9ef5	-0.027053336
122	0xbe417d06	-0.18895349
123	0xbe36d5f0	-0.17855048
124	0x3e1a794b	0.15085332
125	0x3d6631c2	0.056199796
126	0xbc50e180	-0.012749076
127	0x3d892a9b	0.066975795
128	0x3e0c876c	0.13723534
129	0x3e920c8d	0.285252
130	0xbe960b7c	-0.29305637
131	0x3e9960f2	0.29956776
132	0xbe03b7a6	-0.12863025
133	0x3d3ae088	0.045624286
134	0x3e55bc34	0.20872575
135	0xbe43e1c8	-0.19129097
136	0x3db302ee	0.08740793
137	0xbe6a13b6	-0.22859082
138	0xba4b2e81	-0.0007750765
139	0xbe9403ea	-0.28909236
140	0x3e1bf9d0	0.15232015
141	0xbd517ad1	-0.051142517
142	0x3dfa8fb9	0.12234444
143	0x3deba387	0.115058
144	0x3c9a2f0b	0.01882126
145	0xbe08edca	-0.1337196
146	0xbddf8870	-0.10914695
147	0x3e8d785a	0.27630883
148	0xbe19835b	-0.14991514
149	0x3dfcce01	0.123439796
150	0x3dbaf007	0.09127813
151	0xbe6f3e50	-0.23363614
152	0x3da8f3bc	0.08249614
153	0x3d7e2d7c	0.062055096
154	0xbe05472a	-0.13015428
155	0xbdc7de68	-0.097592175
156	0x3d8b4163	0.06799581
157	0x3d247102	0.040146835
158	0xbe62cb19	-0.22147788
159	0xbe9538a3	-0.29144773
160	0x3ea3302f	0.318727
161	0xbe0d7b5b	-0.13816588
162	0xbd7f58cb	-0.06234054
163	0x3e6a26c6	0.22866353
164	0x3b31056b	0.0027011286
165	0xbe773ee7	-0.24145089
166	0x3dfb8c78	0.12282652
167	0xbe2553a2	-0.16145185
168	0x3d11bb76	0.035579167
169	0x3e7decc0	0.24797344
170	0xbe88d30e	-0.26723522
171	0xbc346c9b	-0.011012222
172	0x3e8689c1	0.26276973
173	0x3e8719ff	0.2638702
174	0x3d955cca	0.07293089
175	0x3cfdcdd9	0.030981945
176	0xbd7dc424	-0.061954632
177	0xbb06d546	-0.0020573898
178	0xbe89f603	-0.26945505
179	0xbd955d0f	-0.0729314
180	0x3e369080	0.1782856
181	0xbda872ae	-0.082249984
182	0xbe87ff73	-0.2656208
183	0xbea6ad0d	-0.32553902
184	0x3e413366	0.18867263
185	0x3d00d331	0.031451408
186	0x3e31affd	0.1735229
187	0xbaae4b2f	-0.0013297553
188	0xbea80758	-0.32818103
189	0x3e0aabcf	0.13542102
190	0x380e85b6	3.3979966e-05
191	0x3e18dceb	0.14928024
192	0xbc584e60	-0.01320228
193	0xbe043bb8	-0.12913406
194	0x3d7cea9c	0.06174718
195	0xbe259ea2	-0.16173795
196	0x3e934016	0.2875983
197	0xbd8ff7db	-0.070296966
198	0xbd9ea63c	-0.077465504
199	0xbbfc0e22	-0.0076921145
200	0x3e7b9a05	0.24570473
201	0xbe5d15f8	-0.21590412
202	0xbe845584	-0.25846493
203	0xbe067b2e	-0.13132927
204	0xbce54b00	-0.027989864
205	0x3df3d7b1	0.11906374
206	0xbe433d1e	-0.19066283
207	0x3e54fafc	0.20798868
208	0xbde0cdbc	-0.10976741
209	0xbd06bc98	-0.0328947
210	0x3d7e6422	0.062107213
211	0xbe2a138d	-0.1660902
212	0xbd7823c4	-0.060580984
213	0x3db090b5	0.08621351
214	0xbe32d3fc	-0.17463678
215	0xbeae4b2a	-0.3404172
216	0xbe60873e	-0.21926591
217	0xbe3bd313	-0.18342237
218	0xbe549a4e	-0.20761988
219	0xbd8bd1c0	-0.06827116
220	0x3dee2c3c	0.11629531
221	0xbe14fdf4	-0.1455
222	0x3c883a66	0.016629409
223	0xbea69936	-0.32538766
224	0x3e9b5135	0.30335394
225	0xbdb1d8fb	-0.08683964
226	0xbb101aa2	-0.002198853
227	0xbe7e08b1	-0.24808003
228	0x3e42d12b	0.19025104
229	0xbcb34607	-0.021883978
230	0xbcceaf50	-0.02523008
231	0x3e870234	0.26368868
232	0xbdbdbfe3	-0.09265115
233	0xbe864722	-0.26226145
234	0x3da8295f	0.08211016
235	0x3e0f0ca6	0.13969669
236	0x3e422322	0.18958715
237	0xbd26523f	-0.04060578
238	0x3e666eb4	0.22503167
239	0xbe61e2c0	-0.22059155
240	0xbe3d1c13	-0.1846774
241	0xbe0f7c47	-0.14012252
242	0xbe98a8da	-0.29816324
243	0x3e560349	0.2089969
244	0xbe9fb275	-0.3119084
245	0xbe3f8557	-0.18703209
246	0xbc91828a	-0.017762441
247	0x3da3aae4	0.07991579
248	0xbe1d06db	-0.15334646
249	0x3d2358d8	0.03987965
250	0x3cc866dc	0.02446311
251	0x3de84ff3	0.11343374
252	0xbd9d6a50	-0.07686293
253	0xbe9c3bcb	-0.30514368
254	0xbe823713	-0.25432643
255	0x3cf82081	0.030288937

weight f4 [256, 256]
0	0xbd6dfa64	-0.05810012
1	0x3d1cf81c	0.038322553
2	0xba981ee9	-0.0011605892
3	0xbcf2acb4	-0.029623367
4	0xbc4ebaab	-0.012617747
5	0x3c059723	0.00815371
6	0xbd09b200	-0.03361702
7	0xbc01a798	-0.007913493
8	0xbcb744a4	-0.022371598
9	0xbd4d3c22	-0.050106175
10	0x3d4403ee	0.04785531
11	0xbd5c5700	-0.053793907
12	0x3d53bf9b	0.0516964
13	0xbc033fc1	-0.008010806
14	0xbd09192d	-0.033471275
15	0xbcd01468	-0.025400355
16	0x3d7a4df2	0.06110949
17	0x3c51d0f7	0.012806169
18	0x3d424fa8	0.047439247
19	0xbc5eb580	-0.013593078
20	0xbcfd00ac	-0.03088411
21	0xbcffff8a	-0.03124978
22	0x3aa0e8c3	0.00122764
23	0x3d456346	0.048190378
24	0x3d51691e	0.05112564
25	0x3ca9c4e4	0.020723768
26	0xbb69d9e0	-0.0035682842
27	0x3d2fc208	0.042909652
28	0x3c8d7c98	0.017271325
29	0xbb5e58d8	-0.0033927467
30	0x3d223518	0.039601415
31	0xbad80ac0	-0.0016482696
32	0x3d59145f	0.052997943
33	0x3d4b291f	0.049599763
34	0x3d0f6826	0.035011433
35	0xbd09b21c	-0.033617124
36	0x3d526d0c	0.051373526
37	0xbd4f6daa	-0.050641693
38	0x3d3dd07d	0.046341408
39	0x3ca7fbaf	0.020505754
40	0xbbe65afe	-0.00702989
41	0xbd920e68	-0.07131654
42	0x3d1cb98b	0.038262885
43	0xbd895087	-0.067048125
44	0xbc0df1d3	-0.008663612
45	0x3bd6b238	0.006552007
46	0x3d0944c4	0.033512846
47	0xbd0efc04	-0.03490831
48	0x3d55cc60	0.05219686
49	0x3cc3009c	0.023804002
50	0xbd81cddf	-0.06338095
51	0x3d422414	0.047397688
52	0x3cb21789	0.021739738
53	0x3d44d0ae	0.048050575
54	0xbd575ea3	-0.052580487
55	0xbcbd7350	-0.023126274
56	0xbc3137e2	-0.010816546
57	0x3d58aa36	0.0528967
58	0x3cb976f0	0.022639722
59	0xbd436e96	-0.047712885
60	0xbd8e78b2	-0.069566146
61	0x3d7944ac	0.060856506
62	0xbd7828d6	-0.06058582
63	0x3bc73f40	0.006080538
64	0x3d429344	0.047503725
65	0x3cb7ec41	0.022451522
66	0x3c9f7868	0.019466594
67	0x3cc0fb25	0.023557255
68	0x3b413595	0.00294814
69	0xbd574c16	-0.052562796
70	0x3d5a4432	0.053287692
71	0x3d7e0816	0.06201943
72	0x3d0f8cea	0.035046495
73	0x3cc149c7	0.02359475
74	0x3cb1e860	0.02171725
75	0x3d2661e6	0.040620707
76	0x3d434afe	0.04767894
77	0x3c62aced	0.013835174
78	0x3d088822	0.03333295
79	0xbca2db0e	-0.019879844
80	0xbce16c59	-0.027517485
81	0xbd4ce634	-0.050024226
82	0x3c09570c	0.00838257
83	0x3d6111b0	0.05494851
84	0x3d1cfd07	0.038327243
85	0xbc614415	-0.013749142
86	0xbd422c4c	-0.047405526
87	0xbd1af689	-0.03783277
88	0x3cca6be8	0.024709657
89	0xbc853c75	-0.01626418
90	0xbd90c864	-0.070694715
91	0x3cbe399c	0.02322083
92	0xbd37e203	-0.044893276
93	0xbd287f9c	-0.041137323
94	0xbd26aeac	-0.040693924
95	0x3c807737	0.015681846
96	0x3d4f91bc	0.050676093
97	0xbd2cf251	-0.04222328
98	0xbd5c1334	-0.05372925
99	0xbd07b6e8	-0.033133417
100	0xbc3be518	-0.011468194
101	0x3cf357ec	0.02970501
102	0xbd7551ef	-0.05989259
103	0xbc3ba94c	-0.011453938
104	0x3cc42844	0.023944981
105	0xbd712535	-0.058873374
106	0xbc73eb70	-0.014887676
107	0xbd2400bd	-0.040039767
108	0xbd64538c	-0.05574374
109	0x3c098bc2	0.008395137
110	0xbd8df74d	-0.069319345
111	0xbd069b63	-0.032863032
112	0xbd1c25dc	-0.038122043
113	0xbcd2185c	-0.025646381
114	0x3cb657b8	0.022258624
115	0x3d27edd0	0.04099828
116	0xbd25aaf8	-0.04044625
117	0x3cd28c65	0.025701711
118	0xbd525053	-0.051346134
119	0x3b7257e0	0.0036978647
120	0xbd280721	-0.041022424
121	0xbd930d1a	-0.07180233
122	0xbd107ff6	-0.035278283
123	0x3bf69fa1	0.0075263535
124	0xbd6ce032	-0.057830997
125	0xbceeec7c	-0.029165499
126	0xbd009e5a	-0.031401016
127	0xbd57b9bc	-0.052667364
128	0xbc9847e5	-0.01858897
129	0xbd3a572d	-0.045493294
130	0x3c78ac5f	0.015177815
131	0xbd541903	-0.051781666
132	0xbd6c2ad8	-0.057658046
133	0xbd3bb47c	-0.04582642
134	0x3d2bc3f3	0.04193492
135	0x3d4687fd	0.048469532
136	0xbc49156c	-0.012273174
137	0xbd355bac	-0.04427688
138	0xbd28d539	-0.04121897
139	0x3c52dd2f	0.012870117
140	0x3d53a76a	0.05167333
141	0x3d224af1	0.03962225
142	0x3d292642	0.04129625
143	0x3adfaf1c	0.0017065736
144	0x3d276f00	0.040877342
145	0x3d2754fa	0.040852524
146	0xbc5ef350	-0.013607815
147	0x3caea2aa	0.021317799
148	0x3bcfd430	0.0063424334
149	0xbc6766f8	-0.014123671
150	0x3ccc631c	0.024949603
151	0x3d4eb014	0.05046089
152	0xbcb0fdb4	-0.02160535
153	0xbd4a46d2	-0.049383946
154	0x3c0c270f	0.008554234
155	0x3d0f445e	0.03497731
156	0x3c24af00	0.010051489
157	0xbb632141	-0.0034657272
158	0x3c791b41	0.015204252
159	0xbcd5f030	-0.026115507
160	0xbd4681be	-0.048463576
161	0xbd52fe36	-0.051511966
162	0xbd21fc32	-0.039547153
163	0xbc7a8de4	-0.015292618
164	0xbd3b269f	-0.04569113
165	0xbd199a1c	-0.037500486
166	0x3c205e08	0.009788044
167	0x3c97f98d	0.018551612
168	0xbccf79c8	-0.025326625
169	0xbb0b0730	-0.0021214
170	0x3c629098	0.013828419
171	0x3d1c668f	0.038183745
172	0x3bf1831e	0.0073703667
173	0x3ae3a232	0.0017367064
174	0xbc81c596	-0.015841287
175	0x3cf84cd0	0.030310065
176	0x3c2f80d5	0.010711868
177	0x3c13a21c	0.009010818
178	0x3d3c020c	0.04590039
179	0xbc8e4dd6	-0.0173711
180	0xbd805b4e	-0.06267415
181	0xbcde2809	-0.0271187
182	0xbc085818	-0.008321784
183	0xbcdad1fd	-0.026711458
184	0xbd864bba	-0.065574124
185	0xbb4b9460	-0.003106378
186	0xbd3b3a72	-0.045710035
187	0x3c7315aa	0.014836708
188	0xbd784556	-0.060613
189	0xb94ee36f	-0.00019730417
190	0xbd866277	-0.065617494
191	0x3a3c548f	0.0007184231
192	0xbb52b4e0	-0.0032151267
193	0xbc84fafc	-0.01623296
194	0xbc99272b	-0.018695435
195	0x3d7598dc	0.05996023
196	0xbd005799	-0.03133354
197	0x3c88836d	0.016664231
198	0x3d768724	0.060187474
199	0xbc03d9f6	-0.008047571
200	0x3cf79c40	0.030225873
201	0x3c9d8024	0.019226141
202	0xbce81fbc	-0.028335445
203	0x3d4cdb12	0.05001361
204	0x3d7cb498	0.061695665
205	0xbc00234b	-0.0078209145
206	0xbd33b948	-0.04387787
207	0xbd4d34e0	-0.050099254
208	0x3d0d8a08	0.034555465
209	0xbd688f6a	-0.056777395
210	0xbd2f58a2	-0.042809136
211	0x3d1bc7a6	0.038032196
212	0xbd06c1dd	-0.032899726
213	0xbd8bda0e	-0.068287
214	0xbca346a8	-0.019931152
215	0xbb97ca9e	-0.004632308
216	0xbd3f1250	-0.046648324
217	0x3d605233	0.05476589
218	0xbc9a8544	-0.018862374
219	0x3c020f48	0.007938214
220	0x3d52d65f	0.05147397
221	0xbd1dfdfc	-0.038572297
222	0xbc83eba0	-0.016103566
223	0xbc4bb1a8	-0.012432493
224	0xbcce2200	-0.025162697
225	0xbd50d66a	-0.05098573
226	0xbcd69caa	-0.02619775
227	0xbd3340ff	-0.043763157
228	0xbd7bd4ff	-0.061482426
229	0xbd6e80a8	-0.058228165
230	0x3d6c124a	0.05763463
231	0x3d4837ec	0.048881456
232	0xbc1f3ff1	-0.009719835
233	0x3c39a558	0.011330925
234	0x3cca1bc2	0.02467144
235	0xbc73b072	-0.014873611
236	0x38aa63c1	8.124812e-05
237	0xbcd9eec8	-0.026603118
238	0x3c8ae66b	0.016955575
239	0x3d26b324	0.040698186
240	0x3c0869f0	0.008326039
241	0xbd6f0eb8	-0.058363646
242	0xbd3fa464	-0.046787634
243	0xbae25829	-0.0017268705
244	0x3d587ab8	0.05285141
245	0xbd8ac2d1	-0.067754395
246	0xbcd19a82	-0.02558637
247	0xbb620976	-0.0034490502
248	0x3d2b6a82	0.04184962
249	0x3d786a44	0.060648218
250	0x3d2307af	0.03980225
251	0xbd31568d	-0.043295432
252	0xbd0914a8	-0.033466965
253	0xbd664e82	-0.056227215
254	0x3d2b8aec	0.041880533
255	0x3d060676	0.032721005

bias f4 [256]
0	0xbd65fbf8	-0.0561485
1	0x3c14eac0	0.009089172
2	0xbd59369e	-0.053030603
3	0x3d585f3c	0.052825198
4	0x3c6dce0c	0.014514457
5	0xbbbf897c	-0.005845247
6	0x3d565a15	0.052332003
7	0x3d641c06	0.055690788
8	0xbd326c02	-0.043560036
9	0xbd2aacb0	-0.041668594
10	0x3cbefb93	0.02331332
11	0x3d3c9be7	0.046047118
12	0xbce67e47	-0.028136386
13	0xbd707986	-0.058709644
14	0xbd505440	-0.050861597
15	0x3cbacc6f	0.02280256
16	0xbd31ce79	-0.0434098
17	0xbccd5b06	-0.025067817
18	0xbd56a737	-0.052405562
19	0x3cba459a	0.022738267
20	0x3c4d1ecc	0.01251955
21	0xb7aa71b6	-2.031853e-05
22	0x3d3bef47	0.04588249
23	0x3d19f225	0.037584443
24	0xbd3ff9a1	-0.046868924
25	0x3c8a398f	0.01687315
26	0xbd36077f	-0.044440743
27	0xbcd66f44	-0.026176102
28	0x3c1d4b99	0.009600543
29	0xbc046763	-0.00808129
30	0xbd511ab9	-0.051050875
31	0xbc21dd2c	-0.009879392
32	0x3c5244f7	0.012833825
33	0x3d80f1a6	0.06296091
34	0xbd388a74	-0.045053914
35	0xbcb8b33f	-0.022546409
36	0xbc3bc7a5	-0.011461173
37	0x3b981ab2	0.004641854
38	0xbd018480	-0.031620502
39	0xbc72f96f	-0.014829977
40	0x3d2ccdca	0.042188443
41	0xbd6c0118	-0.05761823
42	0xbcd7cd0c	-0.026342891
43	0x3ceeb65b	0.029139688
44	0x3d90a2c2	0.070622936
45	0xbd056e4a	-0.032575883
46	0x3d4c67cd	0.04990368
47	0x3c8074ed	0.015680755
48	0x3d022c87	0.031780746
49	0x3d50bf3c	0.050963625
50	0xbd220422	-0.039554723
51	0xbd2e1822	-0.042503484
52	0x3d3f656a	0.046727575
53	0x3aae136e	0.0013280937
54	0x3d40b6ad	0.047049213
55	0xbcfb9e58	-0.030715153
56	0xbd325177	-0.043534722
57	0xbb0c4d60	-0.0021408424
58	0x3d464034	0.048401073
59	0xbd4644ab	-0.04840533
60	0xbd51fa3a	-0.051264025
61	0xbce8e217	-0.02842812
62	0x3d44a122	0.04800523
63	0xbd08f44e	-0.033436112
64	0x3cfc91d7	0.03083126
65	0xbcdfa64c	-0.027300976
66	0xbd38d192	-0.045121737
67	0xbcc08941	-0.023502948
68	0x3d025103	0.03181554
69	0x3c1c4365	0.0095375525
70	0xb9554f69	-0.00020342846
71	0x3b12b4a5	0.0022385505
72	0x3cf7fcbe	0.030271884
73	0x3c471ead	0.01215331
74	0x3b396319	0.0028287827
75	0xbac7c4b5	-0.0015241118
76	0x3d24c729	0.040228996
77	0xbc35cb67	-0.011095858
78	0x3b8c04b6	0.0042730225
79	0xbd7b1342	-0.061297663
80	0xbd81fb92	-0.06346811
81	0x3c31b89b	0.010847236
82	0xbd4d4858	-0.05011782
83	0x3d149fde	0.036285274
84	0xbd50ce87	-0.05097821
85	0x3d865e04	0.06560901
86	0x3d4c20a2	0.04983581
87	0x3b09bdb5	0.0021017615
88	0x3d5d0d07	0.053967502
89	0xbd81f0a3	-0.06344726
90	0x3d36c5cc	0.044622228
91	0x3d044ed6	0.032301746
92	0xbbd1c48d	-0.0064016045
93	0xbd416b9e	-0.047221772
94	0xbc39015c	-0.011291828
95	0xbc91b6d5	-0.017787376
96	0xbc7dc1e9	-0.015488126
97	0xbd581404	-0.052753463
98	0xbd297182	-0.041368015
99	0xbd2a71bc	-0.04161237
100	0xbad763c0	-0.0016432926
101	0xbd4e2288	-0.0503259
102	0xbc802a84	-0.015645273
103	0x3d2a6b1e	0.04160606
104	0x3d5180df	0.05114829
105	0x3cefef38	0.029288873
106	0xbd290e96	-0.041273676
107	0xbd046c49	-0.03232983
108	0xbc2c89bc	-0.010530885
109	0x3d0f59ee	0.034997873
110	0xbd4520bc	-0.04812692
111	0x3cf8d26f	0.03037378
112	0xbd0ba819	-0.034095857
113	0xbd375a74	-0.044763997
114	0xbcc1436d	-0.023591721
115	0xbd55201f	-0.052032586
116	0x3cdf19b7	0.027233941
117	0x3d536eb4	0.051619247
118	0xbc6ae1ab	-0.01433603
119	0xbcca846b	-0.024721345
120	0x3d3120e6	0.043244265
121	0xbd4f18b2	-0.05056066
122	0x3cdbc5b3	0.026827669
123	0xbd869945	-0.065722026
124	0x3aba6e4b	0.0014223544
125	0xbd84ace2	-0.06478287
126	0xbd1a40d7	-0.037659492
127	0x3d97eb0c	0.074178785
128	0xbd200633	-0.039068412
129	0xbcf1975d	-0.029491121
130	0xbd32b3ae	-0.043628387
131	0xbc4bb065	-0.012432192
132	0x3cb64d2d	0.022253597
133	0xbcbacd04	-0.022802837
134	0x3bf88708	0.0075844564
135	0xbc685f45	-0.01418287
136	0xbb97dd06	-0.0046345023
137	0xbd32e22c	-0.043672726
138	0x3c4114b9	0.011784726
139	0x3b905ed2	0.0044058347
140	0x3d1e0fd5	0.038589317
141	0x3c111a58	0.0088563785
142	0x3d198086	0.037476085
143	0x3d0f1d72	0.03494019
144	0xbb1fb411	-0.0024368803
145	0xbcd0686c	-0.025440417
146	0xbd15c9bf	-0.036569353
147	0xbce81326	-0.028329443
148	0x3d33320b	0.043748897
149	0x3d2f62cd	0.042818833
150	0xbd36e819	-0.04465494
151	0x3c035ea4	0.00801817
152	0xbca45476	-0.020059805
153	0xbcfb2b83	-0.030660396
154	0xbd6fb30c	-0.05852036
155	0xbd0a2959	-0.03373084
156	0x3ccc8028	0.024963453
157	0xbd37de15	-0.04488953
158	0xbcc822cd	-0.024430657
159	0xbd08e566	-0.033421896
160	0x3d05eb91	0.032695357
161	0xbd0231eb	-0.031785887
162	0x3c63d83d	0.013906536
163	0x3c107840	0.008817732
164	0xbbe56630	-0.007000707
165	0x3c3f0def	0.011661037
166	0x3c8ac266	0.0169384
167	0x3b7cee4e	0.003859419
168	0xbc8b4bca	-0.017003912
169	0xbcb8875a	-0.022525478
170	0x3cf7c754	0.030246414
171	0x3d46121c	0.048357114
172	0x3d21f603	0.039541256
173	0x3d4ac27f	0.049501892
174	0xbd144ae4	-0.036204234
175	0x3d1bde41	0.038053755
176	0xbd0bae58	-0.034101814
177	0xbcc99c99	-0.024610804
178	0xbd2af23a	-0.04173491
179	0xbb8a0eeb	-0.004213204
180	0xbd3fb1c5	-0.046800394
181	0x3c29942d	0.010350269
182	0xbd727c0c	-0.05920033
183	0x3c86bc16	0.016447108
184	0xba9f7343	-0.0012165088
185	0xbc257705	-0.010099177
186	0x3cec0e7e	0.028815504
187	0xbd478776	-0.04871317
188	0xba6c9a25	-0.0009025655
189	0xbd5c190e	-0.05373483
190	0xbd71ee3a	-0.05906508
191	0x3b8af943	0.00424114
192	0x3d9b316e	0.07577787
193	0xbd22dc3c	-0.039760813
194	0xbd532a3c	-0.05155395
195	0x3c3a4f81	0.011371494
196	0x39f326d8	0.00046377513
197	0xbd0076a8	-0.03136316
198	0xbd44e6ec	-0.048071787
199	0xbd11505f	-0.03547704
200	0x3d45c54f	0.04828387
201	0x3d1b0748	0.03784874
202	0xbcc6da38	-0.024273977
203	0x3d2c360f	0.04204374
204	0xbbbf3ba9	-0.0058359695
205	0x3bad04b0	0.0052801
206	0x3d25c642	0.040472277
207	0x3cade222	0.021225993
208	0xbc84a674	-0.016192652
209	0x3bc04556	0.0058676405
210	0xbd7b5d49	-0.06136826
211	0xbd740792	-0.059577532
212	0x3d70944c	0.058735177
213	0xbbf4d5fa	-0.007471797
214	0x3c475c7d	0.012168047
215	0x3d83c478	0.06433958
216	0xbd066a84	-0.032816425
217	0xbd55f13c	-0.052232012
218	0xbc83a3db	-0.016069343
219	0x3bddcddd	0.0067689256
220	0xbd037484	-0.03209354
221	0xbd6bfb50	-0.057612717
222	0xbd00b0e1	-0.031418685
223	0x3d98897b	0.07448097
224	0x3cceabc0	0.025228381
225	0x3c8b1891	0.016979488
226	0xbcfa66aa	-0.030566532
227	0xbd1e5588	-0.038655788
228	0x3bcc8f05	0.006242635
229	0xbd1def6e	-0.038558416
230	0xbd12d8e2	-0.035851367
231	0x3bedae4b	0.0072534434
232	0xbd7efc80	-0.06225252
233	0xbc9c070c	-0.019046329
234	0x3cac2ea9	0.021018343
235	0xbd54e56a	-0.0519766
236	0x3ccdf846	0.0251428
237	0x3c20f5e1	0.009824247
238	0x3c8e7f74	0.017394759
239	0xbce9603c	-0.028488271
240	0x3cd1abe2	0.025594655
241	0xbc960780	-0.018314123
242	0xbd5f62bc	-0.05453752
243	0xbc1571f0	-0.009121403
244	0xbd003a61	-0.031305674
245	0xbc88a546	-0.016680371
246	0x3c52fa00	0.012876987
247	0x3bd1910f	0.006395466
248	0xbb392e54	-0.0028256373
249	0xbd169a93	-0.036768507
250	0x3d0b4444	0.03400065
251	0x3d020dce	0.031751446
252	0xbbcbd6e2	-0.0062206844
253	0x3d3d9c82	0.046291836
254	0xbcb1e163	-0.021713918
255	0xbc628a43	-0.0138269095

weight f4 [3, 256]
0	0xbd35452e	-0.044255428
1	0x3cf1bb5c	0.029508285
2	0xb8f7dea6	-0.00011819349
3	0xbc82760a	-0.015925426
4	0xbd405123	-0.046952378
5	0x3cbbb0e0	0.022911489
6	0xbdd6f06e	-0.10495077
7	0x3d9c4ccc	0.07631835
8	0x3d5b912c	0.053605244
9	0x3cce4be4	0.025182672
10	0xbc267572	-0.010159837
11	0x3d2103f5	0.039310414
12	0x3c3ce82f	0.011529966
13	0xbd519e32	-0.051176257
14	0x3cafc2d0	0.021455199
15	0x3acf4dd4	0.0015816041
16	0x3d02a874	0.03189893
17	0xbcb8f949	-0.022579806
18	0xbd5cecd7	-0.053936806
19	0x3cf4fd34	0.029905893
20	0x3cf7f7c7	0.030269517
21	0xbd8263c0	-0.06366682
22	0x3e180dc9	0.14849009
23	0xbd19ff8f	-0.037597235
24	0x3c0a2f16	0.008434078
25	0xbe3da67c	-0.1852054
26	0x3bb42a15	0.0054981806
27	0xbbdd85db	-0.0067603416
28	0x3d96e6d5	0.073682465
29	0x3c318dd6	0.010837039
30	0xbd07d529	-0.03316227
31	0xbc8b80cc	-0.017029189
32	0xbe4f9596	-0.20271906
33	0xbe5d6a2e	-0.21622536
34	0x3d04ab7b	0.0323901
35	0x3ccb8318	0.024842784
36	0x3c37c2be	0.011215864
37	0xbd32a19b	-0.04361115
38	0x3dbb612b	0.09149393
39	0x3e7265ab	0.23671596
40	0x3df893d7	0.12137573
41	0x3ce8518c	0.028359197
42	0x3cb61db0	0.022230953
43	0x3d51fc6a	0.05126611
44	0x3d579b01	0.052638058
45	0x3ba2610a	0.0049554156
46	0xbe3afca3	-0.18260436
47	0xbd306d71	-0.04307312
48	0x3da56870	0.080765605
49	0xbd0f243d	-0.03494667
50	0xbd68eb92	-0.056865282
51	0xbc98004a	-0.018554825
52	0xbdb90f21	-0.09036089
53	0xbdbb87e6	-0.0915678
54	0xbc6f5b22	-0.01460913
55	0xbcce36cd	-0.025172615
56	0xbc8f3aa9	-0.017484026
57	0xbb8528d6	-0.004063706
58	0xbcfde8ff	-0.03099489
59	0x3c9411bf	0.018074868
60	0x3bbf2aa0	0.0058339387
61	0x3cc028b2	0.023456905
62	0x3d888e8a	0.06667812
63	0xbc95fedc	-0.018310003
64	0xbd04ecc8	-0.032452375
65	0xbdf534d6	-0.11972968
66	0xbe17750b	-0.14790742
67	0x3ca04f9b	0.019569209
68	0xbd28ecda	-0.041241504
69	0x3d0da62e	0.03458231
70	0x3bc909a7	0.006135184
71	0x3d3e5618	0.046468824
72	0xbd7b8cf2	-0.061413713
73	0x3e6321f4	0.22180921
74	0x3cb0534d	0.021524096
75	0x3e9a6fab	0.3016332
76	0x3d1d4196	0.038392626
77	0x3cff3574	0.031153418
78	0x3e26737a	0.16254988
79	0x3d2ba887	0.041908767
80	0xbd655298	-0.05598697
81	0xbd0b2320	-0.033969045
82	0xbde9ac55	-0.11409823
83	0x3d51ed2f	0.051251587
84	0x3c1905e8	0.009339787
85	0x3e257de6	0.16161308
86	0xbb11ba40	-0.0022236258
87	0x3d5af1be	0.0534532
88	0x3d83a9f0	0.064288974
89	0x3d34a3ae	0.04410141
90	0x3cc10263	0.023560708
91	0x3ce39855	0.027782599
92	0x3c2a59e3	0.010397407
93	0x3f14b3ec	0.5808704
94	0x3c125e00	0.008933544
95	0x3d58af93	0.052901816
96	0xbb580622	-0.003296264
97	0x3bb04120	0.0053788573
98	0x3d0d7c3c	0.034542307
99	0x3c9c2766	0.019061755
100	0x3d1ad9f6	0.03780552
101	0xbc5da570	-0.013528213
102	0x3cd13917	0.025539918
103	0xbcac09a7	-0.021000696
104	0x3d4c087a	0.04981277
105	0x3dabb917	0.083849125
106	0x3d8f06ff	0.06983756
107	0xbb13893b	-0.0022512216
108	0xbbd142bb	-0.0063861287
109	0xbd3fe27d	-0.046846855
110	0x3937e3b9	0.00017537073
111	0x3cebecf8	0.028799519
112	0x3ca78c5d	0.020452673
113	0x3d32e27e	0.04367303
114	0xbd6edb21	-0.058314446
115	0xbcaccf27	-0.021094872
116	0x3d7eed87	0.062238242
117	0x3de6acd9	0.11263437
118	0x3cf0834c	0.029359482
119	0xbc1a285a	-0.009409035
120	0x3aaa58c0	0.001299642
121	0xbc9015f2	-0.01758859
122	0xbd1a450d	-0.03766351
123	0x3d7f093e	0.062264673
124	0x3d9ebb48	0.07750565
125	0xbd5bff58	-0.05371031
126	0xbbf6e39a	-0.0075344564
127	0x3d81fae9	0.063466854
128	0x3c97028b	0.01843383
129	0xbca99bc6	-0.020704161
130	0xbd564c5c	-0.052318916
131	0x3bf12ef0	0.0073603317
132	0x3c102bbd	0.0087994905
133	0x3c23b358	0.009991489
134	0x391fe48d	0.00015248563
135	0x3c523b59	0.012831532
136	0xbc94ad69	-0.018149095
137	0x3d72ef3a	0.059310175
138	0xbe14c659	-0.14528789
139	0xbd5dc3d7	-0.054141846
140	0x3ce5c115	0.02804617
141	0xbb42b8a6	-0.002971211
142	0x3d33d76f	0.043906625
143	0x3ce6d699	0.0281785
144	0x3d1a1b56	0.037623726
145	0xbc88532c	-0.016641222
146	0xbc829edb	-0.015944889
147	0x3d2c8bfb	0.042125683
148	0x3d7a7b1e	0.06115257
149	0x3d040254	0.032228783
150	0xbd04fc0c	-0.032466933
151	0xbd229dcb	-0.039701264
152	0xbb4af033	-0.0030965924
153	0xbd4324b0	-0.04764241
154	0xbd788446	-0.06067302
155	0x3d01151b	0.03151427
156	0x3df29548	0.118448794
157	0xbcac86fc	-0.02106046
158	0xbd097ef9	-0.033568356
159	0xbd1869f8	-0.037210435
160	0xbdcba5e5	-0.09943751
161	0x3c2c318b	0.010509859
162	0x3ea44cfe	0.3208999
163	0x3d059761	0.03261507
164	0xbc0de490	-0.008660451
165	0x3d615bff	0.055019375
166	0x3d0c9ec5	0.034331102
167	0xbdf0c87c	-0.11756989
168	0x3d41e1c3	0.047334444
169	0xbdbf7613	-0.09348693
170	0x3d33045c	0.04370533
171	0x3c88a6cf	0.016681103
172	0x3e654235	0.22388537
173	0x3b1ccb0b	0.0023924734
174	0x3b1088fb	0.0022054303
175	0x3cb1c032	0.021698091
176	0x3e771dad	0.24132414
177	0xbc87341c	-0.01650434
178	0xbd8b6e2c	-0.06808123
179	0x3d8dd7ca	0.06925924
180	0x3d7132ac	0.058886215
181	0x3d92cf3c	0.07168433
182	0xbd352c94	-0.044231966
183	0x3dc6296e	0.09675871
184	0xbd3fc046	-0.046814226
185	0x3cffaf53	0.03121153
186	0x3e36a1d1	0.17835166
187	0x3a5c5280	0.00084046274
188	0x3cdfa950	0.027302414
189	0x3c421486	0.0118457135
190	0xbd4d8b0c	-0.050181434
191	0x3c581b90	0.013190165
192	0xbe32e8c5	-0.17471607
193	0xbd66bdec	-0.056333467
194	0x3d72fc02	0.059322365
195	0x3dfa25f8	0.12214273
196	0xbc14ec6e	-0.009089572
197	0x3ca4a9c9	0.020100491
198	0xbcb38d43	-0.021917945
199	0xbcb41635	-0.021983245
200	0x3bec376f	0.0072087566
201	0x3acaa735	0.0015461209
202	0xbca9e857	-0.020740671
203	0x3d834778	0.06410116
204	0x3b017598	0.001975393
205	0x3c2f41e8	0.010696866
206	0x3d0ef7c3	0.034904253
207	0x3d9f3c81	0.07775212
208	0xbb69cd2e	-0.0035675275
209	0xbc5562cd	-0.013024044
210	0x3cca498b	0.024693271
211	0xbc1b8068	-0.009491064
212	0x3e5065c5	0.20351322
213	0x3c334bec	0.010943394
214	0xbc1b3480	-0.009472966
215	0x3e4976c1	0.19674207
216	0xbcde73a4	-0.027154751
217	0x3cd289de	0.025700506
218	0x3cf10100	0.029419422
219	0x3be4c234	0.0069811586
220	0xbd1e81a9	-0.038697872
221	0x3c904013	0.017608678
222	0xbd1d5c1e	-0.038417928
223	0x3d574a08	0.052560836
224	0x3f286385	0.65776855
225	0x3f262651	0.64902216
226	0xbcc18e53	-0.023627436
227	0xbc976dcd	-0.018484974
228	0xbcfa80bb	-0.030578962
229	0xbd1e2beb	-0.038616102
230	0xbd6ca58a	-0.057775058
231	0xbd40b5cc	-0.047048375
232	0x3d307c81	0.043087486
233	0x3b046820	0.0020203665
234	0x3d159305	0.036517162
235	0xbbcff1e0	-0.0063459724
236	0x3c6e8a83	0.014559391
237	0x3e684031	0.22680737
238	0x3c86cb84	0.016454466
239	0xbdc6af57	-0.09701412
240	0x3d99cc50	0.07509673
241	0x3d651c76	0.055935346
242	0x3cdf0364	0.027223296
243	0x3c7f3568	0.015576698
244	0x3d12a1ab	0.03579871
245	0xba5765a8	-0.0008216747
246	0x3c9bd712	0.019023452
247	0xb987c0c1	-0.0002589282
248	0x3cef01af	0.029175607
249	0x3d156cb4	0.03648062
250	0x3cb93618	0.022608802
251	0xbe1c5960	-0.15268469
252	0x3d032a9f	0.03202307
253	0xbd3db1db	-0.046312194
254	0xbdf289cf	-0.11842691
255	0xbdd29690	-0.10282624

bias f4 [3]
0	0xba8a19b1	-0.0010536221
1	0x3ac9c815	0.0015394712
2	0x3bea2359	0.007145327
